…
Learning Rate: 0.001
Optimiser Decay: 1e-05
Loss Function: MSELoss()
Latent Dimension: 10
Noise Factor: 0
Dataset: S_Dataset 4
Time Dimension: 100
Seed Val: 0
Reconstruction Threshold: 0.5

Normalisation:
simple_norm_instead_of_custom: False
all_norm_off: True

Autoencoder Network:
AE File ID: autoencoder_3D_V2.py

==========================================================================================
Layer (type:depth-idx)                   Output Shape              Param #
==========================================================================================
Sequential                               [10, 1, 128, 88, 100]     --
├─Encoder: 1-1                           [10, 10]                  --
│    └─Sequential: 2-1                   [10, 64, 7, 4, 5]         --
│    │    └─Conv3d: 3-1                  [10, 8, 64, 44, 50]       224
│    │    └─ReLU: 3-2                    [10, 8, 64, 44, 50]       --
│    │    └─Conv3d: 3-3                  [10, 16, 32, 22, 25]      3,472
│    │    └─BatchNorm3d: 3-4             [10, 16, 32, 22, 25]      32
│    │    └─ReLU: 3-5                    [10, 16, 32, 22, 25]      --
│    │    └─Conv3d: 3-6                  [10, 32, 15, 10, 12]      13,856
│    │    └─ReLU: 3-7                    [10, 32, 15, 10, 12]      --
│    │    └─Conv3d: 3-8                  [10, 64, 7, 4, 5]         55,360
│    │    └─ReLU: 3-9                    [10, 64, 7, 4, 5]         --
│    └─Flatten: 2-2                      [10, 8960]                --
│    └─Sequential: 2-3                   [10, 10]                  --
│    │    └─Linear: 3-10                 [10, 512]                 4,588,032
│    │    └─ReLU: 3-11                   [10, 512]                 --
│    │    └─Linear: 3-12                 [10, 10]                  5,130
├─Decoder: 1-2                           [10, 1, 128, 88, 100]     --
│    └─Sequential: 2-4                   [10, 8960]                --
│    │    └─Linear: 3-13                 [10, 512]                 5,632
│    │    └─ReLU: 3-14                   [10, 512]                 --
│    │    └─Linear: 3-15                 [10, 8960]                4,596,480
│    │    └─ReLU: 3-16                   [10, 8960]                --
│    └─Unflatten: 2-5                    [10, 64, 7, 4, 5]         --
│    └─Sequential: 2-6                   [10, 1, 128, 88, 100]     --
│    │    └─ConvTranspose3d: 3-17        [10, 32, 15, 10, 12]      55,328
│    │    └─BatchNorm3d: 3-18            [10, 32, 15, 10, 12]      64
│    │    └─ReLU: 3-19                   [10, 32, 15, 10, 12]      --
│    │    └─ConvTranspose3d: 3-20        [10, 16, 32, 22, 25]      13,840
│    │    └─BatchNorm3d: 3-21            [10, 16, 32, 22, 25]      32
│    │    └─ReLU: 3-22                   [10, 16, 32, 22, 25]      --
│    │    └─ConvTranspose3d: 3-23        [10, 8, 63, 43, 49]       3,464
│    │    └─BatchNorm3d: 3-24            [10, 8, 63, 43, 49]       16
│    │    └─ReLU: 3-25                   [10, 8, 63, 43, 49]       --
│    │    └─ConvTranspose3d: 3-26        [10, 1, 128, 88, 100]     217
==========================================================================================
Total params: 9,341,179
Trainable params: 9,341,179
Non-trainable params: 0
Total mult-adds (G): 11.82
==========================================================================================
Input size (MB): 90.11
Forward/backward pass size (MB): 911.17
Params size (MB): 74.73
Estimated Total Size (MB): 1076.01
…
